assets/model_dicom_cancer2.tflite (tflite, 487416 bytes, 6 tensors)

sequential_3/conv2d_5/Conv2D/ReadVariableOp f4 [1, 5, 5, 50]
0.080710955 0.0007426471 -0.023254434 0.075268365 -0.053711616 0.0015936921 -0.048539102 0.07076882
0.052728243 0.031921465 0.039902415 0.022074675 0.08702419 -0.038415805 0.06860935 -0.0013202016
-0.03474411 -0.08037455 -0.02038706 0.030722996 0.046200495 -0.03568193 -0.057627622 0.054109544
0.03480876 0.022917353 -0.061984733 -0.033541124 -0.039692968 -0.047635574 0.015351438 0.07629513
0.0227109 0.06575993 0.031579725 0.028627573 0.017507194 -0.074954554 -0.006293699 0.005794806
0.08696292 -0.040488936 -0.05193236 -0.06900277 0.028862076 -0.030950537 0.010378154 0.07725862
0.010620951 0.033106744 -0.037970275 -0.05611701 0.03229944 -0.01826137 0.022904355 0.03488676
-0.0018437125 0.0020287416 -0.008967792 -0.046616647 0.02061213 -0.05945743 -0.022329666 0.047485955
-0.008258355 0.047235128 -0.009920851 -0.008169515 -0.035342485 -0.04281506 0.06909445 0.08448758
0.0030218423 0.0059442506 -0.05444868 0.0063031064 -0.042113613 0.018108005 0.04388871 -0.065815955
0.018598702 0.029033903 0.018208038 0.024995323 0.03864536 0.026844427 -0.040401157 -0.016265955
0.031321246 -0.028572692 0.045829874 0.06689747 0.07134439 -0.03379789 0.02377638 -0.059172686
0.030399807 0.030894596 -0.021782009 -0.025754893 -0.020507807 -0.019707456 -0.07002912 -0.017132377
0.06338629 0.029159151 -0.043345872 0.086333774 -0.02420973 0.08190895 0.04749177 -0.07386021
-0.00928729 -0.05252165 0.07642593 -0.012794956 -0.034235023 -0.07387686 0.033990465 0.011601248
0.00046800406 0.018370563 -0.012481608 0.044811074 0.03670211 0.019409405 0.063684024 0.0061532343
-0.0071886415 -0.07161461 0.08156174 0.08545559 -0.06207758 0.017022574 0.024213765 0.038099263
0.08286054 0.020403443 0.011400949 0.007808283 0.08870292 -0.007140178 0.0079122605 0.005316574
0.047166705 -0.040627815 0.025571955 0.07759811 -0.041157804 -0.02348862 0.06963615 0.07082943
0.024447456 0.021325434 0.002243258 -0.00836244 -0.031572703 0.09189301 -0.07851344 0.037391488
0.05681423 -0.01951484 0.053265497 -0.040850997 0.039197437 0.08907447 -0.031617638 0.017614838
-0.061244447 -0.05868179 -0.013469398 0.0670747 -0.042737447 -0.021137157 -0.025593322 -0.03776438
0.023624094 -0.051942363 0.059071004 -0.030619923 0.024099348 0.06451814 0.032604393 0.08155746
0.09310564 0.057193134 -0.028222326 -0.060776062 -0.00081536785 0.054728765 0.05064746 -0.0039242865
-0.01761723 -0.058079727 -0.017529653 0.007438275 0.071275204 0.07117304 -0.05038694 -0.02493879
0.016625488 0.033645496 0.034616344 -0.057225194 0.01216952 0.08182345 -0.0069690016 0.011692397
-0.051649842 0.03243815 0.056101963 -0.011097068 0.025705319 0.06091531 0.00042202976 0.005505057
0.014160129 0.019090299 0.04976989 -0.015964907 0.011122113 -0.036773168 -0.06235423 0.030284554
-0.050548133 -0.012336323 0.006860971 0.051397383 0.05414308 0.016197152 0.0458588 0.04603005
-0.05352854 0.05517565 0.026597152 0.030467333 -0.0041021556 0.02309486 0.086167775 0.005621782
0.086248495 -0.020247616 0.03985297 0.053651318 0.05223773 0.03550809 0.08385475 0.078701325
0.056385893 -0.060459577 0.015196144 0.0045780344 -0.007893061 0.017546963 0.049809057 0.05662996
00000000: c94b a53d 34ae 423a 1580 bebc 4d26 9a3d
00000010: b600 5cbd 6fe3 d03a f0d0 46bd 3eef 903d
00000020: 92f9 573d 15c0 023d b770 233d f3d5 b43c
00000030: bd39 b23d e459 1dbd 0f83 8c3d 9d0a adba
00000040: d74f 0ebd 699b a4bd c302 a7bc cbae fb3c
00000050: bb3c 3d3d 3727 12bd f10a 6cbd f8a1 5d3d
00000060: a193 0e3d 2cbd bb3c b4e3 7dbd 6b62 09bd
00000070: 1895 22bd 851d 43bd 9984 7b3c 9f40 9c3d
00000080: 360c ba3c 24ad 863d be59 013d 5f84 ea3c
00000090: 3f6b 8f3c c681 99bd 603b cebb 5be2 bd3b
000000a0: 9e19 b23d bad7 25bd 07b7 54bd 5351 8dbd
000000b0: 2970 ec3c fb8b fdbc 2209 2a3c c439 9e3d
000000c0: 7f03 2e3c f09a 073d b886 1bbd f3da 65bd
000000d0: 6b4c 043d de98 95bc eaa1 bb3c 6be5 0e3d
000000e0: baa8 f1ba a3f4 043b a5ed 12bc 19f1 3ebd
000000f0: c5da a83c a289 73bd b4ec b6bc a280 423d
00000100: 0d4e 07bc 9f79 413d 118b 22bc 6ed9 05bc
00000110: 48c3 10bd d85e 2fbd 6481 8d3d d307 ad3d
00000120: 1a0a 463b fdc7 c23b 9405 5fbd 4a8a ce3b
00000130: 537f 2cbd 3d57 943c a6c4 333d 84ca 86bd
00000140: 4e5c 983c 82d8 ed3c 0629 953c fec2 cc3c
00000150: 994a 1e3d d8e8 db3c af7b 25bd 2e40 85bc
00000160: b54a 003d 4711 eabc 1bb8 3b3d 8a01 893d
00000170: 021d 923d a86f 0abd afc6 c23c 0f5f 72bd
00000180: 0409 f93c aa16 fd3c 2f70 b2bc edfb d2bc
00000190: fdff a7bc 8871 a1bc 6d6b 8fbd 3359 8cbc
000001a0: acd0 813d 2cdf ee3c 718b 31bd c3cf b03d
000001b0: 7c53 c6bc e1bf a73d bb86 423d 0644 97bd
000001c0: b829 18bc f120 57bd 3385 9c3d efa1 51bc
000001d0: 063a 0cbd c04c 97bd 9639 0b3d 2913 3e3c
000001e0: 715e f539 dd7d 963c a97f 4cbc d18b 373d
000001f0: f454 163d 7900 9f3c c56c 823d 12a1 c93b
00000200: b28e ebbb aeaa 92bd d709 a73d 5703 af3d
00000210: 0f45 7ebd ed72 8b3c f25b c63c f90d 1c3d
00000220: c9b2 a93d 1f25 a73c 0ccb 3a3c a0dc ff3b
00000230: e0a9 b53d 27f8 e9bb 6da2 013c a836 ae3b
00000240: e031 413d 5a69 26bd 477c d13c c2eb 9e3d
00000250: 1695 28bd 356b c0bc 669d 8e3d 050f 913d
00000260: 0846 c83c adb2 ae3c a003 133b 9e02 09bc
00000270: 6152 01bd 6732 bc3d a8cb a0bd d127 193d
00000280: 0ab6 683d 96dd 9fbc ec2c 5a3d 6053 27bd
00000290: 7e8d 203d ad6c b63d 7f81 01bd fe4c 903c
000002a0: 75db 7abd 515c 70bd c0ae 5cbc 765e 893d
000002b0: 760d 2fbd d527 adbc 16a9 d1bc d3ae 1abd
000002c0: 5187 c13c 84c1 54bd 70f4 713d a2d6 fabc
000002d0: ff6b c53c 1622 843d 2f8c 053d 9907 a73d
000002e0: 2bae be3d 5943 6a3d 8232 e7bc 52f0 78bd
000002f0: 69be 55ba 452b 603d b673 4f3d 4d97 80bb
00000300: 0252 90bc 02e5 6dbd 599a 8fbc c6bc f33b
00000310: bcf8 913d 2cc3 913d 8962 4ebd 6f4c ccbc
00000320: 2d32 883c dccf 093d dec9 0d3d f764 6abd
00000330: ab62 473c 0e93 a73d 395c e4bb 7891 3f3c
00000340: c98e 53bd dedd 043d 2ccb 653d 7ad0 35bc
00000350: f693 d23c 5582 793d e043 dd39 c463 b43b
00000360: e3ff 673c 4263 9c3c 83db 4b3d d6c8 82bc
00000370: 8639 363c 769f 16bd 2667 7fbd 5017 f83c
00000380: 8f0b 4fbd 4a1e 4abc ffd1 e03b 1086 523d
00000390: 22c5 5d3d e4af 843c 70d6 3b3d 018a 3c3d
000003a0: be40 5bbd ddff 613d 45e2 d93c a196 f93c
000003b0: 606b 86bb 6f31 bd3c bb78 b03d ed36 b83b
000003c0: 0da3 b03d 54de a5bc de3c 233d 7cc1 5b3d
000003d0: 3bf7 553d ee70 113d 0abc ab3d 292e a13d
000003e0: e5f4 663d 76a4 77bd 3ff9 783c 5603 963b
000003f0: e651 01bc a6be 8f3c 9504 4c3d d1f4 673d

sequential_3/conv2d_5/Conv2D_bias f4 [50]
0.0022904845 0.0065620053 0.00874971 -0.0021327042 0.00369755 -0.004742994 -0.0016559805 -0.006401079
-0.0002426405 0.0008499997 -0.003382158 -0.00023677223 -0.0085619 0.00037775547 -0.004987797 -0.0067585665
-0.003350844 0.005426334 0.0020134298 0.005880152 -0.0066482225 -0.0068727466 -0.019064149 -0.0056275236
0.0028912148 -5.677141e-06 -0.0032706512 -0.0047641406 0.0070836367 0.0032527866 -0.0053459727 -0.003956985
-0.0041351635 -0.008128327 -0.0053868904 -0.0040887324 -0.0037569366 0.0011809308 -0.0027971133 -0.006712524
-0.004498843 -0.004145394 -0.0026003313 -0.0010350659 -0.0071668285 0.0061388407 -0.0028023142 -0.0048662852
0.0012104835 0.0015637565
00000000: f41b 163b 1706 d73b f25a 0f3c d7c4 0bbb
00000010: 9852 723b 1e6b 9bbb 7c0d d9ba 24c0 d1bb
00000020: 506d 7eb9 84d2 5e3a 32a7 5dbb 1046 78b9
00000030: 3647 0cbc 7b0d c639 ac70 a3bb f776 ddbb
00000040: d599 5bbb 64cf b13b bff3 033b 4aae c03b
00000050: 55d9 d9bb c734 e1bb 6b2c 9cbc 1767 b8bb
00000060: 897a 3d3b 457e beb6 6c58 56bb 821c 9cbb
00000070: da1d e83b b42c 553b 452d afbb 99a9 81bb
00000080: 4480 87bb ad2c 05bc 8384 b0bb c6fa 85bb
00000090: f036 76bb 76c9 9a3a c64f 37bb bcf4 dbbb
000000a0: 086b 93bb 16d6 87bb 526a 2abb 0cab 87ba
000000b0: b7d7 eabb 5428 c93b 08a7 37bb 5c75 9fbb
000000c0: 16a9 9e3a f6f6 cc3a

sequential_3/conv2d_6/Conv2D/ReadVariableOp f4 [30, 4, 4, 50]
-0.044550963 0.026683707 0.028231708 0.01882919 -0.032538183 0.015781254 -0.017838994 -0.022723593
-0.00428142 0.0034642378 0.07435903 0.0079347845 0.0460533 -0.021461066 0.018070867 0.04492199
-0.03716017 0.0612511 0.03845097 -0.07503456 -0.0005790048 -0.009460547 0.01972541 0.014376991
0.0505749 0.020082531 0.0694596 0.02168654 0.025953298 -0.05830711 0.005173942 0.05785577
-0.027256072 -0.042896293 -0.05316122 0.03844633 -0.04107679 0.061702255 0.043504454 -0.010906311
0.03756468 0.017119909 0.07262305 0.041024666 -0.011681686 -0.017370678 0.056577235 0.011700595
0.0540342 0.027982436 -0.06861096 0.005725778 -0.042384796 -0.03855585 -0.04281579 -0.0036845773
-0.044359997 0.009449727 -0.05340253 -0.016654963 -0.054704938 -0.05497313 0.054743867 0.05671666
0.014431538 0.076269284 0.027062846 -0.050704557 0.06265862 -0.05974982 0.08323229 0.07832701
-0.064192384 0.07274575 0.00266123 0.06824071 0.018568667 -0.03612579 0.034275144 -0.049648903
0.0076419706 0.06816577 0.026554666 -0.018236484 0.029308252 -0.031930003 -0.031628672 -0.016425304
0.05585739 -0.0041186893 0.027850164 -0.010104431 -0.037282553 0.07773647 0.021174187 0.059091188
0.04519813 0.051241115 0.011776106 -0.0110218255 -0.03985368 0.0077866637 0.03348629 0.006006944
0.04726104 0.076552585 -0.044230588 0.007827541 0.015413188 -0.036089662 0.04308722 0.053961553
-0.01278381 -0.0018320734 0.04926094 0.00081935234 0.047549933 0.062065557 -0.0514797 -0.030776674
-0.04017017 -0.0406557 -0.052092344 0.06292723 0.0332926 -0.018462323 -0.051983528 -0.07350974
-0.056567844 0.013860153 0.018113244 0.087855496 -0.021134045 -0.002866584 0.085107595 0.03336943
0.01574777 0.06640476 0.028019061 0.038444303 -0.010779921 -0.0067808237 -0.05108046 0.07080044
0.053685907 -0.03129934 0.07933006 0.028429152 -0.029127678 -0.04199356 0.03540152 -0.060310483
0.041751534 0.032002855 -0.017285788 0.08536741 0.057594568 -0.0390284 0.04915762 -0.019197026
0.043377582 0.035238482 0.016531615 -0.042430382 0.07932721 0.028170131 -0.047221992 0.04464469
0.010686128 -0.06106317 0.0687404 0.025696525 -0.05261343 0.034012567 -0.07566497 0.06715444
0.02963306 0.019889582 0.0444557 0.037162762 -0.04147391 0.07816981 -0.051857725 0.049812853
0.0362879 0.04427594 -0.008422714 -0.029114952 -0.03517689 0.017776776 0.07143793 0.02518582
-0.0036475773 0.008990753 0.043741196 -0.02629211 -0.023127165 -0.014824999 0.0015474193 0.021101542
0.004173495 -0.022422587 0.009387281 -0.03790528 -0.003200737 0.04930147 0.0072469967 -0.03394039
0.03185981 0.038682215 0.07889629 -0.042409826 0.016311035 0.049672715 0.07560525 0.077486254
0.013713074 0.029114658 0.018126456 0.011174147 0.011897444 -0.01970293 -0.061097506 0.021073693
0.027624207 0.022231 -0.021901624 -0.014197438 -0.059633642 0.010199239 0.07920313 0.02051521
0.059658796 -0.0038304958 -0.00016910637 -0.03911981 0.05001283 -0.025185054 0.051424332 -0.01091771
0.07309588 0.036075827 -0.03146579 -0.012757117 0.06228872 -0.01939054 0.08350324 0.029070998
0.01258013 0.03573497 -0.054234855 0.024722012 0.02583957 0.05430829 0.055750616 0.0840021
00000000: 127b 36bd ca97 da3c 2f46 e73c ac3f 9a3c
00000010: c246 05bd b047 813c 1523 92bc d426 babc
00000020: 274b 8cbb 4408 633b 8c49 983d e600 023c
00000030: 63a2 3c3d 1ecf afbc 5b09 943c 1f00 383d
00000040: 4335 18bd 6fe2 7a3d c47e 1d3d b8ab 99bd
00000050: 5bc8 17ba 6900 1bbc 2f97 a13c 798d 6b3c
00000060: a027 4f3d 1f84 a43c d640 8e3d f9a7 b13c
00000070: 039c d43c 70d3 6ebd 2c8a a93b 2cfa 6c3d
00000080: 2048 dfbc 06b4 2fbd 94bf 59bd e679 1d3d
00000090: 2340 28bd 81bb 7c3d ba31 323d 62b0 32bc
000000a0: 6cdd 193d 0d3f 8c3c 65bb 943d 7b09 283d
000000b0: 8b64 3fbc f44c 8ebc 88bd 673d dab3 3f3c
000000c0: f752 5d3d 6c3b e53c e783 8cbd 4f9f bb3b
000000d0: ae9b 2dbd bdec 1dbd 9c5f 2fbd f378 71bb
000000e0: d4b2 35bd 07d3 1a3c 9cbc 5abd fd6f 88bc
000000f0: 4912 60bd 812b 61bd 1b3b 603d ba4f 683d
00000100: 4272 6c3c 1233 9c3d e7b2 dd3c 95af 4fbd
00000110: 2a53 803d 3abc 74bd b175 aa3d e969 a03d
00000120: 4c77 83bd b9fb 943d 0868 2e3b c9c1 8b3d
00000130: 511d 983c a3f8 13bd 1864 0c3d a65c 4bbd
00000140: 7f69 fa3b 7f9a 8b3d 2c89 d93c ae64 95bc
00000150: dc17 f03c 09c9 02bd 118d 01bd 5c8e 86bc
00000160: b8ca 643d 12f6 86bb 0726 e43c 0e8d 25bc
00000170: 97b5 18bd 4c34 9f3d 7d75 ad3c 9a09 723d
00000180: ad21 393d 34e2 513d 92f0 403c e394 34bc
00000190: 9d3d 23bd 4527 ff3b ec28 093d e6d5 c43b
000001a0: cb94 413d 9ac7 9c3d 222b 35bd 163f 003c
000001b0: 9987 7c3c c1d2 13bd 3a7c 303d ca06 5d3d
000001c0: 2f73 51bc 2f22 f0ba d7c5 493d cec9 563a
000001d0: b8c3 423d 7438 7e3d 61dc 52bd 5d1f fcbc
000001e0: 7a89 24bd 9786 26bd c85e 55bd fedf 803d
000001f0: d25d 083d 4c3e 97bc aeec 54bd 468c 96bd
00000200: afb3 67bd b215 633c 3a62 943c 95ed b33d
00000210: 4e21 adbc 4ddd 3bbb e44c ae3d 62ae 083d
00000220: 7801 813c 38ff 873d 3b88 e53c c677 1d3d
00000230: 449e 30bc ac31 debb bf39 51bd d2ff 903d
00000240: c1e5 5b3d bd33 00bd cc77 a23d 41e4 e83c
00000250: 2b9d eebc 7001 2cbd 2f01 113d 2008 77bd
00000260: a803 2b3d 6d15 033d ed9a 8dbc 1cd5 ae3d
00000270: 48e8 6b3d 3edc 1fbd 8059 493d 1543 9dbc
00000280: b1ac 313d 3a56 103d 4f6d 873c 7bcb 2dbd
00000290: 4e76 a23d 0cc5 e63c d96b 41bd 5add 363d
000002a0: df14 2f3c 601d 7abd c4c7 8c3d 8581 d23c
000002b0: 2e81 57bd c350 0b3d 3cf6 9abd 4488 893d
000002c0: 08c1 f23c 7aef a23c 2e17 363d fb37 183d
000002d0: 8ce0 29bd 7e17 a03d c468 54bd 9008 4c3d
000002e0: 9fa2 143d b05a 353d 6cff 09bc 7b82 eebc
000002f0: a515 10bd 9aa0 913c 0d4e 923d 7e52 ce3c
00000300: 310c 6fbb f44d 133c f829 333d 8d62 d7bc
00000310: 2e75 bdbc 8de4 72bc c7d2 ca3a 24dd ac3c
00000320: d0c1 883b 93af b7bc 1ccd 193c 9142 1bbd
00000330: 75c3 51bb 57f0 493d 3778 ed3b 1405 0bbd
00000340: 6f7f 023d 3e71 1e3d 6194 a13d edb5 2dbd
00000350: b89e 853c 9e75 4b3d edd6 9a3d 1db1 9e3d
00000360: cdac 603c dd81 ee3c ef7d 943c c513 373c
00000370: 7fed 423c 0a68 a1bc 6141 7abd bda2 ac3c
00000380: 294c e23c c91d b63c 096b b3bc 5f9c 68bc
00000390: 6842 74bd b51a 273c 4035 a23d 840f a83c
000003a0: c85c 743d 0e09 7bbb 2552 31b9 183c 20bd
000003b0: 41da 4c3d e350 cebc 52a2 523d 32e0 32bc
000003c0: 4bb3 953d 3fc4 133d 46e2 00bd 3a03 51bc
000003d0: 7522 7f3d e9d8 9ebc bf03 ab3d 4d26 ee3c
000003e0: e41c 4e3c d55e 123d 5e25 5ebd d185 ca3c
000003f0: 82ad d33c 5f72 5e3d c25a 643d 4b09 ac3d

sequential_3/conv2d_6/Conv2D_bias f4 [30]
-0.0026743836 -0.0015381182 -0.011989283 -0.0032457237 -0.00063888106 0.0031268548 0.011333506 -0.0105250785
-0.005126522 -0.016607286 -0.0034959163 0.0029506024 -0.0010014545 -0.0025603161 0.0018038973 -0.0061439397
0.00097395724 0.0050210604 -0.0055492646 -0.0072970814 0.0006200942 -0.003379343 -0.008013351 -8.738161e-05
-0.0027391328 0.016794449 -0.009166139 -0.0064975857 -0.003249258 0.0014823241
00000000: b644 2fbb af9a c9ba b36e 44bc 35b6 54bb
00000010: 957a 27ba ebeb 4c3b 2bb0 393c 6171 2cbc
00000020: 62fc a7bb 010c 88bc be1b 65bb e55e 413b
00000030: 3d43 83ba faca 27bb c070 ec3a 1a53 c9bb
00000040: 2a51 7f3a b587 a43b 9bd6 b5bb 5b1c efbb
00000050: d18d 223a f877 5dbb 6e4a 03bc a540 b7b8
00000060: 0683 33bb 8394 893c 932d 16bc b3e9 d4bb
00000070: 81f1 54bb 8b4a c23a

sequential_3/dense_3/MatMul/ReadVariableOp/transpose f4 [2, 48000]
-0.0039747595 -0.014266294 -0.0007386356 0.0050972123 0.0041676788 0.0015818286 -0.0064932783 0.005353055
0.005412856 -0.002055144 -0.008010678 0.0021791628 0.008255918 -0.0047638034 0.008978884 -0.009099537
0.0053039305 0.0011998912 -0.004350048 0.0046369457 -0.009212153 -0.009546938 -0.0016768418 -0.0037753235
0.0012497138 0.0076281917 0.0023889078 0.0030899218 0.0018369742 -0.0014663467 -0.0022746567 -0.017662471
-0.010837672 -0.010218809 0.012792938 0.0041749706 -0.010069167 0.0031541975 0.00025486108 0.0032469493
-0.014244523 0.005930829 -0.0068170065 -0.0016083876 0.0009045413 -0.006939026 0.0019597781 0.0068175416
-4.119608e-05 -0.0057364237 -0.012055675 -0.007581471 -0.003718537 0.0032470692 0.0064901933 -0.013115666
-0.0079239905 0.008202337 0.00935705 0.008788952 -0.009738359 -0.001033308 0.007258603 0.00878012
0.0036565734 -0.0033883112 0.007114715 -0.003286915 -0.0032129418 -0.0018747798 -0.0057300697 0.0038996849
-0.007186406 0.008831985 0.0016719738 0.000606112 -0.0071884533 0.0029721658 -0.0044660466 0.00051031786
-0.0052250363 -0.006349796 -0.0035101364 0.0063218693 0.01856978 -0.0066924645 -0.001801526 0.005192926
0.0023667775 0.0071953954 -0.004844423 -0.013515211 0.00410403 0.0014125099 0.005772074 -0.008920893
-0.007896151 -0.008430895 0.00055071246 -0.0005343237 0.0029425 0.005272336 0.0031699706 0.008665321
0.010129799 0.0041820575 0.01078663 0.007322422 0.010438472 -0.011466694 0.008133769 0.0015321806
-0.008291941 -0.002904227 0.014723335 -0.0084160045 -0.0076251035 0.011175066 -0.0019570645 0.0037617348
-0.0017738165 -0.017731847 0.0023447918 0.010344293 -0.004284626 0.00063963415 -0.014598148 0.007197056
-0.004215173 0.006906106 -0.014523462 0.008956212 0.007151788 -0.007802885 0.010714798 -0.0144806085
0.012109958 0.013157896 -0.00077312544 -0.00044403496 -0.0061460976 -0.0074465745 -0.0069788177 -0.0039983415
0.0024925785 0.0036381048 -0.010078262 0.007174993 0.008660248 -0.0059471 -0.008837249 -0.015810898
-0.009674309 0.008629832 -0.012861166 -0.007727137 0.0038954574 0.001061112 -0.002558113 0.0022707505
0.00064281066 -0.003549791 -0.00059891585 -0.010504415 -0.0003956635 -0.0014692104 0.010067799 -0.0011139996
0.011751821 -0.004702901 0.0011428301 -0.0015002243 -0.007925105 -0.00263444 -0.00027151682 -0.00962159
-0.0044483934 0.0049605 0.0045911055 0.0053552585 -0.008361833 -0.011700922 -0.008424184 -0.0027944269
0.011294103 -0.0020194144 1.17132195e-05 0.0009801218 -0.010125263 -0.006355044 -0.003763522 0.0104172295
0.00029181316 0.0014259787 -0.009459516 -0.0014922166 0.009022341 0.016775355 5.4288827e-05 -0.01113051
0.009257455 0.0047757714 -0.0032595962 0.008528562 0.021993216 -0.010703346 -0.009281513 -0.009263979
-0.007950969 0.0016234271 -0.005986276 -0.008195023 -0.008725122 -0.00054530427 -0.011366113 0.010040887
-0.003033658 0.0015455603 -0.004380738 0.013057868 -0.00054592686 0.0088095125 -0.00021459814 -0.010499361
-0.0016183011 -0.0033715437 -0.004138349 -0.0048038857 -0.00042119794 -0.011528374 0.005289603 -0.007736436
-0.008216746 0.0013078311 0.007222543 -0.0029422515 -0.004445989 -0.005673608 -0.0030173492 -0.006031629
-0.0007584458 -0.010278891 -0.0074535185 -0.009098927 -0.004324947 0.0075658555 0.0073719993 -0.005090777
-0.007024434 -0.0059782728 0.005566087 -0.0069786236 0.007340543 0.004013194 0.008826788 -0.0057971803
00000000: b33e 82bb 2dbd 69bc ffa0 41ba 8406 a73b
00000010: 0691 883b 5c55 cf3a 91c5 d4bb ae68 af3b
00000020: 545e b13b 98af 06bb 383f 03bc 49d0 0e3b
00000030: d443 073c ae19 9cbb 2b1c 133c 3916 15bc
00000040: 98cc ad3b ab45 9d3a d98a 8ebb 85f1 973b
00000050: 92ee 16bc c36a 1cbc 79c9 dbba 6b6b 77bb
00000060: 70cd a33a e9f5 f93b 398f 1c3b 4980 4a3b
00000070: a0c6 f03a 6e32 c0ba 6812 15bb e3b0 90bc
00000080: 7e90 31bc cb6c 27bc 7999 513c 31ce 883b
00000090: 26f9 24bc a7b6 4e3b e09e 8539 c5ca 543b
000000a0: dc61 69bc 6657 c23b 3261 dfbb 88d0 d2ba
000000b0: bd1e 6d3a c560 e3bb 9f6f 003b af65 df3b
000000c0: f4c9 2cb8 9cf8 bbbb 2a85 45bc fd6d f8bb
000000d0: b3b2 73bb c8cc 543b b0ab d43b 17e3 56bc
000000e0: a0d3 01bc 1863 063c 504e 193c 89ff 0f3c
000000f0: a38d 1fbc 1070 87ba 93d9 ed3b 7eda 0f3c
00000100: 1fa3 6f3b 6e0e 5ebb 8e22 e93b 4869 57bb
00000110: 3890 52bb 2cbb f5ba 4fc3 bbbb db91 7f3b
00000120: f17b ebbb 08b4 103c 2226 db3a 7de3 1e3a
00000130: 1e8d ebbb abc8 423b ea57 92bb dac6 053a
00000140: c836 abbb f311 d0bb 510a 66bb af27 cf3b
00000150: a71f 983c 764c dbbb 2f21 ecba 6c29 aa3b
00000160: f01b 1b3b 5ac7 eb3b f7bd 9ebb e76e 5dbc
00000170: 197b 863b f823 b93a ab23 bd3b f028 12bc
00000180: dc5e 01bc bd21 0abc b05d 103a db11 0cba
00000190: f5d6 403b 8fc3 ac3b 48bf 4f3b fef8 0d3c
000001a0: 75f7 253c a409 893b 68ba 303c eef0 ef3b
000001b0: 2006 2b3c cdde 3bbc 8043 053c 73d3 c83a
000001c0: ecda 07bc d854 3ebb 253a 713c 48e3 09bc
000001d0: 01dc f9bb a017 373c 1842 00bb 7087 763b
000001e0: 687f e8ba 6142 91bc 14ab 193b 1c7b 293c
000001f0: 0c66 8cbb 1fad 273a 122d 6fbc 48d5 eb3b
00000200: 6f1f 8abb 9e4c e23b d1f3 6dbc 13bd 123c
00000210: 8c59 ea3b 58af ffbb 1f8d 2f3c 1340 6dbc
00000220: d868 463c 3794 573c 92ab 4aba 5dcd e8b9
00000230: 3465 c9bb 6502 f4bb 91ae e4bb 8504 83bb
00000240: 875a 233b 456d 6e3b 4b1f 25bc 341c eb3b
00000250: b6e3 0d3c e4df c2bb 1cca 10bc db85 81bc
00000260: fe80 1ebc 2464 0d3c a4b7 52bc ec33 fdbb
00000270: ee4a 7f3b 0315 8b3a 04a6 27bb dfd0 143b
00000280: 4b82 283a 9ca3 68bb 9000 1dba b61a 2cbc
00000290: 0e71 cfb9 8592 c0ba 69f3 243c a003 92ba
000002a0: b68a 403c cb1a 9abb 04cb 953a 2da3 c4ba
000002b0: 4dd8 01bc 92a6 2cbb 5f5a 8eb9 e0a3 1dbc
000002c0: d4c3 91bb b18b a23b fc70 963b 2a7b af3b
000002d0: 1200 09bc 39b5 3fbc 9705 0abc b422 37bb
000002e0: e70a 393c 2758 04bb e583 4437 6e77 803a
000002f0: 6ee4 25bc f93d d0bb 6ca5 76bb 07ad 2a3c
00000300: 80fe 9839 e8e7 ba3a 16fc 1abc 7b96 c3ba
00000310: 71d2 133c 786c 893c 2fb4 6338 be5c 36bc
00000320: 95ac 173c 137e 9c3b f39e 55bb 62bb 0b3c
00000330: 1e2b b43c 165d 2fbc 7d11 18bc f2c7 17bc
00000340: c844 02bc 2dc9 d43a 8628 c4bb 6b44 06bc
00000350: d0f3 0ebc c0f2 0eba ef38 3abc 8882 243c
00000360: 56d0 46bb 6694 ca3a 4b8c 8fbb abf0 553c
00000370: 881c 0fba c655 103c c005 61b9 8305 2cbc
00000380: 2d1d d4ba 1ef5 5cbb fd9a 87bb ea69 9dbb
00000390: 3bd4 dcb9 81e1 3cbc 6854 ad3b ee81 fdbb
000003a0: 889f 06bc 886b ab3a 15ab ec3b cad2 40bb
000003b0: a9af 91bb ace9 b9bb b8be 45bb f9a4 c5bb
000003c0: 70d2 46ba cb68 28bc a53c f4bb aa13 15bc
000003d0: 49b8 8dbb ffea f73b d090 f13b 88d0 a6bb
000003e0: 392d e6bb 63e5 c3bb b963 b63b f0ac e4bb
000003f0: f088 f03b 1c81 833b 3b9e 103c 46f6 bdbb

sequential_3/dense_3/MatMul_bias f4 [2]
0.0043139798 -0.0043139835
00000000: 495c 8d3b 515c 8dbb
