assets/model_dicom_cancer.tflite (tflite, 487416 bytes, 6 tensors)

sequential_1/conv2d_1/Conv2D/ReadVariableOp f4 [1, 5, 5, 50]
00000000: 55cb 853d 744a 4b3d b17d 143d 38e0 24bd
00000010: 2893 13bc b57f 9e3c a53e 093d 2b8c 0d3d
00000020: 60d3 52bb 2e22 a23d 862a cebc 008c 2dbc
00000030: 73d0 5abd 8d24 02bb 73ce c33d a0b4 8e3a
00000040: 93ea ed3c 8f69 e93b 1419 2dbc 96c9 023d
00000050: d527 3fbd fc86 0d3d d66d 623b c62a 9e3d
00000060: 5bc2 67bd 7d5a 203d 65bf 913d 077e a7bc
00000070: 3b2d c4bc 8b1c a43d 3002 bc3c fda4 503d
00000080: 3ae5 9d3d 7da4 00bd f302 c3bb b5ae f33c
00000090: 9211 8c3c c440 3ebd c323 103c 82f2 6f3d
000000a0: 2173 62bd 2896 733b 036a 313d d57a 01bd
000000b0: 49c9 373d c043 0bbd 40c8 393d 507d 6a3d
000000c0: 5d50 7a3d 8259 f83c 7e31 423d c2e1 913d
000000d0: ad0a e7bc 9be0 53bd 5db7 6a3d d805 69bc
000000e0: c372 31bc f735 45bd 6e62 2ebd 533d a03d
000000f0: 4b45 043d 9ddd 463d 95a2 46bd dcf1 8e3d
00000100: 207c 2a3d 04f3 35bd 2739 e73c e311 a53c
00000110: 52a3 133d 73ff 64bb 737a 133c 82ac 93bc
00000120: a1f4 4c3c 7ce6 263c f615 81bd 45b5 383d
00000130: 7337 edbc b578 5c3d 992e 20bc 95c3 cc3d
00000140: 6ea4 a73b f798 a63d 8368 7f3d a5ec 3b3d
00000150: fe54 9c3d c88e 81bd a318 3cbd 626d 1dbc
00000160: 030e b53a da5b 42bd 08a8 87bd 0b3c 08bd
00000170: 9826 c63d 7681 283d 6f2d 7bbd 9b3f 64bd
00000180: 3258 413d c034 2fbd df58 323d 9e9f c73c
00000190: 5b18 f03b abe9 e3bc 7be7 0b3d e3db a6bb
000001a0: 7746 3e3d cd36 8bbd 27de a3bc 28a5 613d
000001b0: e6d1 56bd 89ea 3b3d 5f32 983d c31b adbb
000001c0: c363 073d ccca 2e3d f056 473d a07c aa3b
000001d0: cc2e 85bd 4297 0e3c 8f3a 4a3d 77e1 c83c
000001e0: 880d 8bbb 46f0 583d 35b1 5cbd a908 4a3d
000001f0: dd35 5ebc 2d81 b6bc f7d2 dd3c 133d 153d
00000200: 6778 293c 3170 5f3d fcb9 c23c 192a 873d
00000210: 92dc 35bc af11 27bc 3101 923d 5497 d73c
00000220: 6754 363d 899c 293b 0bb0 3e3d a140 40bd
00000230: 2efd 66bd 2ffa 773d dc84 94bc 7c61 4aba
00000240: 3803 44bd 497d b9bc ac98 b73d b566 283d
00000250: 9070 ffba 1ac4 803d e3cc 2b3d 92d4 70bc
00000260: feea 54bd 4b73 e6bc af91 7c3d 46b1 7bbc
00000270: 75f5 8d3b 7ff2 5abb c1d6 a9bc f286 903b
00000280: 70d9 bf3d de0e f23c fc3d fcbc 55d7 2e3b
00000290: 3f7f 18bc 0915 05bd 9fc3 1d3c 4ce6 69b9
000002a0: ce52 9d3c d9d4 42bc 3d58 363d 2acc 5a3d
000002b0: a3a9 f9bc 7183 82bb 6f44 38bd b0a3 743d
000002c0: f01d 553d 52f6 853d 2fac 273d 140c ba3d
000002d0: b99d 9f3d 3d9a 493d 76eb 8c3c 1ec2 bfbb
000002e0: 2b08 ab3d 702c 33bd 0812 153c 204b 72bd
000002f0: 714b 02bd fde2 96bc 5323 883d ef54 5f3d
00000300: b079 debc ee07 3d3d c7a8 b6bc c4b5 8cbd
00000310: 7058 be3d 2547 c8bc ae80 5a3c 2ab2 64bd
00000320: f22d bb3c 8707 863d 6fca 70bd aa61 32bc
00000330: da58 8ebd a5df 91bc 265d bd3c 8224 4a3c
00000340: 7c73 25bb 6522 9f3d fdfa b93d 3859 88bd
00000350: ce40 273d 67fd 953d 4fa8 aa3d 650e 64bd
00000360: 3d05 d23b 265f 70bd 7a75 0dbc 8258 6dbc
00000370: 2664 293d bba1 92bd 26a3 d43c ee2c 5b3c
00000380: 51f4 43bd 487c bdbb fb0f feba 9ceb 8f3d
00000390: b153 28bd aaef b43d c0dc 823d 86a9 d93b
000003a0: 08f8 013d 23aa b43d 3fd6 c73d 28fa 4bbd
000003b0: f61a 52bd e5c4 ed3c b60b 95bc 03ac 843d
000003c0: 41e2 07bd aff0 3bbd cf03 30bc d370 0dbc
000003d0: a17b d3bc 2bf0 85bd 4c6f d83d 5ce8 45bd
000003e0: 2642 04bd 656c 17bb f862 cd39 8520 783d
000003f0: 7810 2bbd 415b da3b a590 7c3a 2fcb 86bd
0.06532923 0.04963155 0.03625268 -0.040252894 -0.009007253 0.019348005 0.033507008 0.034557503
-0.0032169446 0.079166755 -0.025166761 -0.010592461 -0.05342145 -0.0019858212 0.095608614 0.0010887571
0.029042518 0.0071231793 -0.010565061 0.03193053 -0.046668846 0.03455256 0.003455033 0.07723002
-0.056581836 0.039148796 0.07116584 -0.020445837 -0.023947349 0.08013257 0.022950262 0.050938595
0.07709737 -0.03140687 -0.0059512793 0.029746393 0.017098222 -0.046448484 0.008797589 0.058580883
-0.055285577 0.0037168358 0.04331399 -0.031611282 0.044869695 -0.03400016 0.04535699 0.057248414
0.061111797 0.030316118 0.04741048 0.07123138 -0.028203333 -0.051727872 0.057303775 -0.014222585
-0.010830584 -0.048147168 -0.04257434 0.07824197 0.032292645 0.04855119 -0.048494894 0.06979725
0.04162228 -0.04442121 0.028225495 0.02015013 0.036044426 -0.0034942299 0.009001362 -0.018026594
0.012509496 0.010186788 -0.06303017 0.045094747 -0.028957104 0.053826053 -0.009776735 0.09998242
0.005116037 0.081346445 0.06235553 0.04587998 0.076333985 -0.063260615 -0.045921933 -0.009608598
0.001381338 -0.047450878 -0.06623846 -0.033260386 0.0967533 0.04113909 -0.061322626 -0.05572472
0.04720325 -0.042774916 0.043541785 0.024368104 0.007327122 -0.027821383 0.034156304 -0.0050921305
0.04645392 -0.06797562 -0.020003391 0.055089146 -0.05244627 0.045877967 0.074314825 -0.0052828505
0.033054125 0.04267387 0.048666894 0.0052028447 -0.065030664 0.008703055 0.049372252 0.024521573
-0.0042435564 0.052963518 -0.053879935 0.049324665 -0.013562647 -0.022278393 0.027078135 0.036435198
0.010343648 0.054550353 0.023770325 0.06599826 -0.011099951 -0.010197087 0.071291335 0.026317276
0.044514086 0.0025880656 0.046554606 -0.046936635 -0.056393795 0.060541328 -0.018129759 -0.0007720215
-0.047854632 -0.022642748 0.08964667 0.041113574 -0.0019488502 0.062874034 0.041943442 -0.014699118
-0.05198192 -0.028131148 0.061662372 -0.0153620895 0.0043322393 -0.00334087 -0.020732285 0.004410618
0.09367645 0.029548105 -0.030791275 0.002667864 -0.009307682 -0.032490764 0.009629159 -0.00022306404
0.019204523 -0.011891567 0.044517744 0.053417362 -0.030476397 -0.003982954 -0.04498714 0.059726417
0.052030504 0.065411225 0.04093569 0.09084335 0.07793755 0.04921936 0.01720212 -0.005851998
0.08351167 -0.04374355 0.009098537 -0.059153676 -0.031810228 -0.018418783 0.066473626 0.05452436
-0.027157634 0.04615014 -0.022297276 -0.068706065 0.09294212 -0.024447987 0.013336344 -0.055833973
0.022849057 0.065444045 -0.058786806 -0.010887543 -0.06950541 -0.017806837 0.023115706 0.012337806
-0.0025245836 0.07770232 0.09081075 -0.06657642 0.040833287 0.07323723 0.083328836 -0.05567779
0.006409316 -0.05868449 -0.008633966 -0.014486434 0.041355275 -0.07159754 0.025956701 0.013377411
-0.04784042 -0.0057826377 -0.0019383425 0.07027361 -0.04109544 0.08834775 0.06389761 0.006642523
0.03173068 0.088215135 0.09757661 -0.049799114 -0.051295243 0.02902455 -0.01819406 0.06478121
-0.033174757 -0.04588383 -0.010743096 -0.008632856 -0.025815787 -0.06539949 0.10568103 -0.0483173
-0.032289647 -0.002310538 0.00039174384 0.060577888 -0.041763753 0.0066637103 0.0009634591 -0.06581723

sequential_1/conv2d_1/Conv2D_bias f4 [50]
00000000: 22bc 6c3a 8c7c 3bba 9280 333b 76f6 dcba
00000010: a8f1 a8ba 86d6 803b 6473 183a 3286 093c
00000020: 8695 37bc 2885 0abb bfe4 943b baa5 60bb
00000030: fa42 263b 5def 5fbb 8383 3bbb 586d 363b
00000040: a757 2c3c b939 e63b 7e68 7739 e3e0 c9bb
00000050: d408 8dba c8fd 32ba 8453 883a 6946 aebb
00000060: 7509 a2bb 39c3 71bb 17e5 313a bbbc 40bb
00000070: 1282 3f3c 317d 153a db7c 98bb a64a 1fba
00000080: 0c5a a5b9 cb24 65ba dd3f 7bba 171b f63b
00000090: 49d1 6cbb c140 ad3a e943 8c3a caf1 013c
000000a0: f4c8 74bb a497 acba 5c57 c8ba d6d9 1c3c
000000b0: 0de4 2e3b 3fbc d3ba 4f6c 893b c38b 3d3b
000000c0: 2c7d 62bb 9f17 deba
0.00090307195 -0.0007152043 0.0027389866 -0.0016858119 -0.0012889402 0.003931823 0.00058155344 0.008393811
-0.011205083 -0.0021136496 0.00454387 -0.0034278468 0.002536951 -0.0034169771 -0.0028612323 0.002783617
0.010518945 0.007025924 0.00023594682 -0.006160842 -0.0010760077 -0.00068279775 0.0010400866 -0.005318452
-0.004944975 -0.0036890043 0.0006786151 -0.0029409367 0.011688726 0.0005702554 -0.004653556 -0.0006076492
-0.00031538343 -0.00087411393 -0.00095844065 0.0075105536 -0.0036135486 0.0013218151 0.0010701391 0.007931182
-0.0037351223 -0.0013167751 -0.0015284824 0.0095734205 0.0026686222 -0.0016154124 0.0041938196 0.0028922416
-0.0034559472 -0.0016944295

sequential_1/conv2d_2/Conv2D/ReadVariableOp f4 [30, 4, 4, 50]
00000000: d1f2 903d cfe7 1f3d da0f f93c b4b0 0bbd
00000010: bdb4 86bc fc0e f63c 3dcf 9d3c 8591 88bc
00000020: c95d 0cbb 7fbd ce3c 712b 123d 49de 063d
00000030: 70d6 983d 7aa4 5fbd bebb 46bd c031 02bd
00000040: 416b 543d 8d04 723c 33f0 4ebd f447 33bd
00000050: ce70 9a3b 5e10 ff3c 416f 583c 6e3d 633d
00000060: b7ef 383d fd2b 59bc 1dbc 3f3d b60c 283d
00000070: 9137 c53c 3f73 11bd 5a49 1dbd f847 93bd
00000080: c891 3b3d 1b62 43bc 8675 97bd 9b24 20bd
00000090: a428 3fbd b968 b83a 29b3 46bd 4274 873d
000000a0: 4b16 ccbc 1e7b 93bc 303c 7cbd 922e 12bd
000000b0: 8a5c 943d c2c3 0b3d 350e 91bc 33e3 6c3d
000000c0: 8507 2dbd 640b 8fbc 82a5 cabc bfbd 2ebd
000000d0: 5a3f 243c c387 7c3d 1d4b 383d 82ff 063c
000000e0: 6a48 1d3d bc72 8e3b 2b98 2abd a0e6 543d
000000f0: fd20 11bd 294f 2a3b 7130 893d b63c 073d
00000100: 7465 d83b 59a6 94bc f6b5 c4bb 259a ae3c
00000110: 58b1 2ebc 4bf3 75bd 76b4 cfbc 046e 723d
00000120: e1d1 483d 8e02 d4bc fd55 593d f03b 983d
00000130: 1f16 84bd 3361 71bd ec21 043d 0ce9 15bc
00000140: 415d fd3c 8129 25bd 6194 39bc fbf0 c9bc
00000150: 282d 8abc 53d4 39bc e652 3c3c 8bb2 303d
00000160: f24c 3d3c fc1a 443d 8e1d 913c 76bb eaba
00000170: 4428 913d 8d91 32bd b70b 393c 1ee5 04bc
00000180: 3c59 663d 963d 0a3d e89a 5bbd 2229 9ebc
00000190: 3dfb 74bc 9f76 88bc 5782 973c a086 aa3d
000001a0: 6a02 4eba 6876 66bd 4423 b43d f4c5 4dbd
000001b0: 775d 443d 9f90 853d 7741 5fbd 2130 ad3c
000001c0: 64e1 a6ba 09a3 4abd 475e febb b3ba aabc
000001d0: 33d8 dd3c 4c1f f03c aff9 71bd 05c8 9dbb
000001e0: 47d0 17bd 02ee 68bd 4a22 28bd 3a16 96bc
000001f0: 0373 1cbc 99b3 5cbc 1dc7 a9bc 85e0 7ebd
00000200: 810b 233d 0548 a3b8 5be2 9aba 57b7 76bd
00000210: 9449 c03c a9ac 5a3c 9242 543d b5c1 38bd
00000220: 5bb6 7cbd 6671 073d 9a50 813d 4f1b 56bd
00000230: cda3 5f3d 6d94 a63d ed6d 883d dcd2 90bc
00000240: 128c 9d3d b8f2 313d b8bc 6fbd 5154 1cbc
00000250: 58fd 96bc ad6c d5bc 5c27 123d b8c4 51bd
00000260: 041f 29bd 7b6b a53c 71fe 91bc 6ac2 84bd
00000270: 3957 dabc 7219 86bd 3dac 6ebc a3a1 8cbd
00000280: 244e 1cbd 1e5c f2bc f5b1 293d 783c d23b
00000290: 2f03 853d c899 ca3c cb5a 773d 56b4 59bd
000002a0: 6f53 d13c 7579 20bd d216 6e3d e06a 2abd
000002b0: 7ab9 a03c 0b7d 94bc d31e 10bd 6e0e 8b3c
000002c0: bd8d 803d 5c1e 033d c931 7d3d 68a2 1e3d
000002d0: 89fa 8a3d 2990 213d 7cf2 8abd 4a3b e83c
000002e0: 9ec3 37bd 4878 4abd b233 b839 e8e7 6abd
000002f0: fee1 073c 98c0 2a3d 14fc f13c 216d 893c
00000300: 126c 6dbd 125d feb9 1997 a33d 90e0 61bd
00000310: ed62 903c 5b2f 463c ef4f 4f3d 2f6d 58bd
00000320: 7771 8f3d 9f22 1e3d 4590 813d fff5 333d
00000330: 72fb 933c 82f7 2abd 1e4c 95bc 1a8a 873d
00000340: 6cf4 03bd 1867 81bd f092 fd3b b1f6 613c
00000350: aaaa 063d 4a57 ef3b f8b1 9b3c 47db 5c3a
00000360: 27d3 be3c 937f ba3c e6de 803d b856 61bd
00000370: 771c 753d ce8f dc3c 5392 34bc b27a 213d
00000380: 0bab f7bc 8dea 66bd 9463 8dbc ce16 033d
00000390: 5635 8b3d 6e20 bebc 4e24 38bd 2bcc 05bc
000003a0: b199 38bd ecef 893a c5cc bd3c dcd5 843d
000003b0: 104e a0bc 2613 133d a4ff 20bc 348d 15bd
000003c0: 2b22 973c 7a1e 783d d1bb 7e3c 04b1 343d
000003d0: c35e 753c e14b f43c 12eb 533d 445b 2dbd
000003e0: f588 7b3c 6f13 783b b5c8 af3c f2ec 363d
000003f0: e0b8 62bd a8b2 033d 6cbf f5bc f82e 273d
0.070775636 0.03903943 0.030403066 -0.034104064 -0.016443605 0.030036442 0.019263858 -0.016670952
-0.0021418205 0.025236843 0.03568596 0.03292683 0.07462776 -0.054600216 -0.04851889 -0.031785727
0.051860098 0.014771593 -0.05052204 -0.04376979 0.0047131544 0.031135734 0.013210119 0.055478506
0.045150485 -0.0132551165 0.04681026 0.041027747 0.024074348 -0.035510298 -0.03840003 -0.07191461
0.045793325 -0.011925246 -0.07395463 -0.03909741 -0.046669617 0.0014069296 -0.048510704 0.06613971
-0.024912974 -0.018003043 -0.061580837 -0.035688944 0.07244213 0.034122236 -0.01770697 0.05783386
-0.0422435 -0.017461486 -0.024737123 -0.042661425 0.01002487 0.06165291 0.04499351 0.008239629
0.038399138 0.0043471735 -0.041649025 0.051977754 -0.03543185 0.0025987125 0.066986926 0.033016883
0.006603891 -0.018145727 -0.0060031367 0.021313736 -0.010662399 -0.060046475 -0.025354605 0.05918695
0.04902828 -0.025880124 0.05306052 0.07433307 -0.06449532 -0.058930587 0.032258913 -0.009149801
0.030928256 -0.040322784 -0.01132688 -0.024651041 -0.016867235 -0.011342126 0.011494374 0.04313902
0.01155399 0.047877297 0.017714288 -0.0017908651 0.07087758 -0.04359584 0.011294297 -0.008111266
0.056237444 0.03375014 -0.053614527 -0.019306723 -0.014952478 -0.016658125 0.018494768 0.08326459
-0.0007858636 -0.056265265 0.08795789 -0.05023761 0.047940698 0.06521725 -0.05450579 0.021141114
-0.0012731967 -0.04947189 -0.0077627036 -0.020840978 0.02708063 0.029311799 -0.059076007 -0.004815104
-0.037063863 -0.056867607 -0.041048326 -0.018321145 -0.009548905 -0.013470554 -0.020724827 -0.062225837
0.039805893 -7.78586e-05 -0.0011816727 -0.06023344 0.023472585 0.013346829 0.0518213 -0.04510661
-0.061697345 0.03306713 0.06314202 -0.052272137 0.054599572 0.08133779 0.06661592 -0.01767867
0.07692732 0.043444365 -0.058529586 -0.009541587 -0.01843135 -0.026052797 0.035682067 -0.051212996
-0.041289344 0.020192852 -0.017821522 -0.06482394 -0.02665292 -0.06547822 -0.014567432 -0.06866767
-0.03816046 -0.02958494 0.04142948 0.0064159 0.06494748 0.024731532 0.06038932 -0.053150497
0.02555248 -0.03917833 0.058127232 -0.04160583 0.019619692 -0.018126031 -0.035185646 0.016974654
0.062770344 0.032011375 0.061815057 0.0387291 0.06786067 0.039444122 -0.067845315 0.028348584
-0.04486429 -0.049431115 0.0003513373 -0.05735007 0.008293627 0.041687578 0.029539146 0.01677567
-0.057964392 -0.00048515998 0.07987804 -0.0551458 0.017625296 0.012096251 0.05061334 -0.0528385
0.070040636 0.038607236 0.06326345 0.043935772 0.018064234 -0.041739948 -0.018224772 0.06618138
-0.03221552 -0.06318492 0.0077384636 0.013791726 0.0328776 0.007304107 0.01900576 0.0008425009
0.023294045 0.02276591 0.062925145 -0.055014342 0.0598416 0.02692404 -0.011021215 0.039423652
-0.030232927 -0.05637603 -0.017259397 0.03200417 0.067972824 -0.023208823 -0.044956498 -0.008166353
-0.045068447 0.0010523773 0.02316893 0.06486103 -0.019568473 0.035906933 -0.0098265745 -0.036511615
0.01844891 0.06057594 0.015547709 0.044114128 0.014976206 0.029821338 0.051737852 -0.042323366
0.015352477 0.003785338 0.02145801 0.044659562 -0.05535209 0.0321528 -0.029998504 0.040816277

sequential_1/conv2d_2/Conv2D_bias f4 [30]
00000000: db83 c63b baa4 2dba 929d b63b 02e7 22bb
00000010: 2abe 283c d81a d13b 8db2 9e3b e715 933b
00000020: 3f47 d1bb c5c4 0ebc 603d 673b 1229 053b
00000030: 69a4 a83c 1b22 86bb 8109 90bb c0da fcbb
00000040: df0d 2e3c c2cf 87bb 4e6f 3dbb b4d5 173a
00000050: 68c9 b23a b863 f4bb a80b 83bb a21e f7bb
00000060: ceaa dbba 1e32 bbbb 8bb2 d33b 2b61 4bbb
00000070: 550f 493a 3c6c 19bb
0.006058199 -0.00066239724 0.005572983 -0.002485693 0.010299245 0.006381374 0.0048430623 0.004488695
-0.006386667 -0.008713906 0.0035284385 0.002031867 0.02058621 -0.004093421 -0.004395664 -0.0077165067
0.010623424 -0.0041446397 -0.0028905454 0.0005792037 0.0013640346 -0.0074581765 -0.0039991923 -0.0075414935
-0.0016759278 -0.0057127615 0.006460493 -0.0031033258 0.0007669826 -0.002341046

sequential_1/dense_1/MatMul/ReadVariableOp/transpose f4 [2, 48000]
00000000: cb53 90bc dbc9 843b fc60 64bb abe8 dc3b
00000010: 422a e43a 73cd 6abb a614 2d3c a55b 3d3c
00000020: 4039 ae3b 5f6e 473c d490 cdbb f013 2c3b
00000030: fba2 e33b 1dff e6b9 80f6 783b 75ef 1a3c
00000040: fc99 683c bc39 a9bb d86f 403c 5640 a53b
00000050: 879e 28bc 2c90 64bb c65b 803b 46a6 003c
00000060: 2e42 4d3c 8b77 543a d4ed e2bb c581 443c
00000070: 7253 e1bb f236 aabb b607 03bc 94e6 6e3b
00000080: cf00 eeb8 2e04 473c 96f8 2cba d959 85bb
00000090: 5cfc cb3b d4d4 403c 569b 093c 209a 9bbb
000000a0: a067 da39 1064 433b 7368 0db9 abe3 0dbc
000000b0: 4d1b ac3a 538b 813a 3b75 583c 53e6 3f3b
000000c0: b859 5e3b c443 a73b 24b0 873b 3be9 613c
000000d0: 3ea7 0d3c 17a3 413b d0ec 5f3c 2490 7fbb
000000e0: 06c8 a7bb a564 333c 793c 063c 8525 d1b9
000000f0: 996d 4fbc eedc 293b 7cbc ca3a 0fac acbb
00000100: 8e6a 0f3c 7d8f babb e9ee 27bc a97d ce3b
00000110: dcd3 6339 5480 283c 68e6 1b3c 64d6 ee3b
00000120: 00ec 9dbb 69be 15bc d84d 5139 a681 29ba
00000130: db1c 26ba 1d3c 43bc d6d3 cfb9 d822 c9bb
00000140: 2887 293b 0192 bcba 42fa 9d3b 7be5 afbb
00000150: f225 e7bb 76c7 0dbc e26d ccba 7cbc dc3b
00000160: c504 87bb 91d4 2bbb f148 78bb 0f22 913b
00000170: 5be5 093c 1d51 c8ba cfdd 53bb 650c e9bb
00000180: 2d24 b5bb 9cf1 013c 9091 1a3b 85ec 593c
00000190: 1c43 363c 40f6 62b9 325a 873b c6c2 223b
000001a0: 80c3 133c 3eef 503c 4f14 f13b bbc6 3dbc
000001b0: 67f1 cebb 4f0b 773c 189a 9a3b 127f 453c
000001c0: e7c5 4b3b a056 2cbc e537 c23b 31f2 ba3b
000001d0: 11ce 323c 0a93 2f3c 9bce 3fbb ef01 763c
000001e0: 7369 10bc 9cfc d43b 71a6 9ebb 0c63 df3b
000001f0: 1e1f e73b e56f 55bc 6013 d93a 18a6 553c
00000200: d76a 533c b903 0bbc aa90 1fbc 9e5b 0fbc
00000210: f232 c5bb c0be 5cbc 448e 13bc b3cc d7bb
00000220: b360 3e3b 9cfa d8bb 1c1a 363c 47e2 ecb9
00000230: 60ed 153a dda1 a93b 5491 003c 7450 e9bb
00000240: 3ef7 e23a 071d 4d3c cdcc 3b3c c18c bcbb
00000250: 980a e53b 655f ed3b e23d 7cbc ba22 e2b9
00000260: bd15 2d3a bdc6 7ebb b842 683c b2f5 7a3b
00000270: ac89 0c3c 7840 253b 88a5 c1bb df0b 9f38
00000280: 7d5c 9abb da91 2abc 2747 f63a 4edc 983b
00000290: 041a 073c 5eec f9ba 3718 f5bb fcb2 d3bb
000002a0: 301b 393c 80f1 99bb c5e3 9bbb 4563 653c
000002b0: f5fd ff3b 3804 463b 8d20 023c 0bcf a0bb
000002c0: ad52 dcb9 4ee4 4b3c b3ba 6c3a 718c 323c
000002d0: 2f24 a0bc 93ae c03b 75e7 9abb 219e beba
000002e0: 5457 60bb d965 aebb 1054 713b 10a8 92bb
000002f0: 2d4b 3b3c a79d 57b9 be88 123c d2bd e63b
00000300: 128c cabb 29e3 64bc 0ff4 6d3b 0b56 44ba
00000310: 1d09 143b 5f84 bb3b 59b3 61bb bcb1 1bbc
00000320: 7e2a 7b3c 1fe8 ac3a 443e 523c e68b 15bc
00000330: 1a2d 9b3a 14e0 9a3a 8b0e 053c c903 9c3b
00000340: 2e0c 543c b21c 513c 4cc9 9abc 1b57 d53a
00000350: 2dcb fa37 c503 343b 0a93 95bb ee6d d03b
00000360: 703c 5fba f888 a33b 4366 573c 0c73 533b
00000370: 720a 183c 709b 153a 6039 a53b 8628 75ba
00000380: 0ee0 e93a 3611 f83b 48fc ed3a 0fa2 db3b
00000390: 9750 c23b fa25 013c afbb 90bb fc4d 96b8
000003a0: 8459 bf3b cc62 533b 420e 7bbc 711f f9bb
000003b0: d944 3abb 7af9 483c c596 1ebb a29e 41bb
000003c0: a88f 13bc 3a84 0b3a 0b78 573c 243b 273c
000003d0: 643e 48bb d2d1 1e3a 009b ee3a 74f5 87bb
000003e0: 2a3a 02bc 4bd6 d83b 22d8 f8bb 6d1b 8339
000003f0: 7301 15bc 5315 42bc ee50 263c d491 9ebb
-0.01761808 0.0040523834 -0.0034847846 0.0067416034 0.0017407613 -0.0035828024 0.010564005 0.011557494
0.0053168833 0.012172311 -0.0062733684 0.0026257 0.006946919 -0.00044059093 0.0037988722 0.009456505
0.014196869 -0.005164353 0.011745416 0.00504307 -0.010291702 -0.0034875972 0.0039171902 0.007852143
0.0125279855 0.00081049715 -0.006925324 0.01199383 -0.0068764025 -0.0051945383 -0.007997444 0.0036453353
-0.00011348875 0.012146993 -0.00065983215 -0.0040695486 0.006225152 0.011769492 0.008398851 -0.0047485977
0.00041657407 0.002981428 -0.00013485718 -0.008660237 0.0013130695 0.0009883441 0.013211544 0.002928157
0.0033927988 0.005104514 0.0041408706 0.013788517 0.008645831 0.0029546672 0.0136673 -0.0038995827
-0.00512028 0.0109492885 0.008193129 -0.0003989154 -0.012660407 0.0025919038 0.001546755 -0.0052695344
0.008753432 -0.0056933747 -0.010249832 0.006301601 0.00021727331 0.010284502 0.009515382 0.007288741
-0.004819393 -0.009139636 0.00019960792 -0.00064661575 -0.0006336697 -0.011916188 -0.00039639947 -0.006138187
0.0025867913 -0.0014386774 0.004821093 -0.0053679324 -0.007054084 -0.008653512 -0.0015596712 0.0067363363
-0.0041204416 -0.0026219229 -0.0037885273 0.004429109 0.008416499 -0.0015282963 -0.0032328253 -0.0071120732
-0.005527994 0.007931139 0.0023585297 0.01330102 0.011124399 -0.00021644775 0.004130625 0.0024835332
0.009018779 0.012752352 0.0073571573 -0.011583026 -0.0063153985 0.01507838 0.0047180764 0.012054222
0.00310933 -0.0105187 0.0059270733 0.005705141 0.010913388 0.010716209 -0.0029267434 0.015015109
-0.008814204 0.00649984 -0.0048416187 0.006817227 0.00705327 -0.013027166 0.001656156 0.013040088
0.012903891 -0.008484774 -0.00973908 -0.008749871 -0.006018036 -0.013473213 -0.009006087 -0.0065856813
0.0029049336 -0.006621672 0.011114623 -0.00045182017 0.00057192706 0.0051767663 0.007847149 -0.0071201865
0.0017316116 0.012519128 0.0114624025 -0.005754084 0.0069897883 0.007244038 -0.015395613 -0.00043131952
0.00066026655 -0.0038875781 0.014176063 0.0038293418 0.008577745 0.0025215428 -0.0059096254 7.583922e-05
-0.0047107325 -0.01041075 0.0018789516 0.0046649342 0.008245949 -0.0019067635 -0.0074796933 -0.0064605456
0.011297986 -0.0046979785 -0.004757377 0.0140007185 0.0078122565 0.0030214917 0.007942331 -0.004907494
-0.00042023268 0.012444569 0.0009030506 0.010897742 -0.019548504 0.005880186 -0.004727299 -0.0014542976
-0.003423174 -0.0053222 0.0036823787 -0.004475601 0.0114314975 -0.00020562728 0.008943735 0.0070416713
-0.0061812485 -0.013970175 0.00363088 -0.0007489628 0.002258844 0.005722567 -0.0034439175 -0.009502824
0.015329955 0.0013191736 0.012832228 -0.009127593 0.0011839003 0.0011816048 0.008121143 0.0047611934
0.012942357 0.012763189 -0.018894814 0.001627657 2.9896933e-05 0.0027468067 -0.0045646476 0.006360761
-0.0008515781 0.004990693 0.01314694 0.0032264618 0.009279834 0.0005707061 0.00504224 -0.0009352047
0.0017843263 0.007570411 0.0018156851 0.0067026685 0.005930017 0.0078825895 -0.004416905 -7.167083e-05
0.0058395285 0.0032254932 -0.015323224 -0.007602625 -0.0028422384 0.012266511 -0.0024198752 -0.0029544015
-0.009006418 0.00053221325 0.013151179 0.010206971 -0.0030554766 0.00060584873 0.0018204153 -0.0041491333
-0.007948438 0.0066173426 -0.0075941244 0.000250067 -0.009094584 -0.011845904 0.010151131 -0.0048391614

sequential_1/dense_1/MatMul_bias f4 [2]
00000000: e684 9d3a d384 9dba
0.0012017756 -0.0012017734
